distillog/datasets/HDFS/model/lightlog.pth (torch, 10007 bytes, 22 tensors)

resblock1.conv1.weight f4 [3, 20, 3]
0	0x3d44690a	0.047951736
1	0xbd9cece6	-0.07662372
2	0xbcb55f4b	-0.022140166
3	0xbdfc8f11	-0.12331975
4	0x3d9cebb8	0.07662147
5	0x3d354ac8	0.04426077
6	0x3d9aae51	0.075527795
7	0xbcbc258d	-0.022967124
8	0xbd849e65	-0.06475524
9	0x3cc4810d	0.023987317
10	0x3b15066f	0.002273943
11	0xbcbb0a4e	-0.022832062
12	0xbd702302	-0.058627136
13	0xbdc86e13	-0.0978662
14	0xbde1f00d	-0.11032114
15	0x3da0a9e8	0.07844907
16	0xbd65b12f	-0.05607718
17	0xbd024d05	-0.031811733
18	0xbdb10e13	-0.086452626
19	0x3c90a6e2	0.0176577
20	0xbd63d7ba	-0.055625655
21	0xbd317889	-0.043327842
22	0xbe5c6ab4	-0.21525079
23	0xbfa0ec05	-1.2572027
24	0xbdf13b83	-0.11778929
25	0x3ef4f436	0.47842568
26	0xbf95ae00	-1.1693726
27	0xbf431a64	-0.76212144
28	0xbc96b9c4	-0.018399127
29	0xbffe97f2	-1.989012
30	0xbeae93ea	-0.34097224
31	0x3e8e5c36	0.27804726
32	0x3fc2dc76	1.5223529
33	0xbf910f9c	-1.1332889
34	0xbf6ed702	-0.93296826
35	0x3f0493e5	0.5178817
36	0x3e1fc421	0.15602161
37	0xbf86957f	-1.0514373
38	0xbfd5ba95	-1.6697565
39	0xbde3dd9a	-0.111262515
40	0xbed7a2e9	-0.42116478
41	0xbdd2603c	-0.102722615
42	0x3e19a2f3	0.15003566
43	0x3f420020	0.7578144
44	0x3f3af8af	0.7303571
45	0x3ec741a3	0.38917264
46	0x3fcf6126	1.6201522
47	0xbd554500	-0.052067757
48	0xbff96ea2	-1.9486887
49	0xbf9be1f7	-1.2178334
50	0x3e3c989f	0.18417595
51	0x3e09d65d	0.1346068
52	0x3e91e7d3	0.2849718
53	0x3f2446de	0.64170635
54	0x3e7fdf50	0.2498753
55	0xbf2bee6d	-0.67160684
56	0xbfd6040d	-1.6719986
57	0xbeb38ada	-0.35066873
58	0xbef70153	-0.48243198
59	0x3f517179	0.8181377
60	0xbd8800a9	-0.06640751
61	0xbd47fbb9	-0.048824046
62	0x3d4a8bf8	0.04944989
63	0x3adad0c4	0.0016694297
64	0x3dda6bfd	0.106651284
65	0xbe008343	-0.12550072
66	0xbd549b36	-0.051905833
67	0x3db79500	0.08963966
68	0x3c612e32	0.013743924
69	0x3d82bd90	0.063838124
70	0x3bde0b85	0.0067762756
71	0x3c9ff671	0.019526692
72	0x3ddd1ba9	0.107962914
73	0xbcebe52b	-0.0287958
74	0xbd8f9b36	-0.07012026
75	0x3cc40b69	0.023931222
76	0xbd301917	-0.042992678
77	0xbc29cf13	-0.010364312
78	0x3df55d72	0.11980714
79	0xbd2e9e69	-0.04263154
80	0xbd00bae9	-0.03142825
81	0x3d48266c	0.048864767
82	0x3cfd13ce	0.030893233
83	0x3c85b7fd	0.016323084
84	0x3d9182d0	0.07105029
85	0x3d890dee	0.0669211
86	0x3d9fcf0f	0.07803165
87	0xbd8cc33b	-0.06873175
88	0xbdc3327f	-0.09531116
89	0x3d9675da	0.07346697
90	0x3d9a2c7f	0.07528018
91	0xbb828f40	-0.003984362
92	0xbd7ac023	-0.061218392
93	0x3dfa9bbb	0.122367345
94	0xbc06eb89	-0.008234867
95	0xbdcba5c7	-0.09943729
96	0xbbf53aa4	-0.007483797
97	0x3da941f6	0.08264534
98	0xbd71849f	-0.058964368
99	0x3d1691cc	0.036760136
100	0x3c9d6d02	0.019217018
101	0x3df415b7	0.11918204
102	0xbd0429df	-0.032266494
103	0x3d0ff83b	0.03514884
104	0xbda1df05	-0.07903866
105	0x3d8da112	0.06915487
106	0xbd804cbb	-0.06264635
107	0x3d5ba612	0.053625174
108	0xbab9059b	-0.001411605
109	0x3de3284c	0.110916704
110	0xbd6351e3	-0.055498015
111	0xbd8a8ff6	-0.067657396
112	0xbdb2f4fd	-0.08738134
113	0xbda37350	-0.079809785
114	0xbd26baa9	-0.040705357
115	0x3d08ade4	0.03336896
116	0x3dd68fc0	0.10476637
117	0xbd5cb0be	-0.053879492
118	0x3dee7cb0	0.11644876
119	0x3dde317f	0.108492844
120	0xbdb54b76	-0.08852284
121	0x3e02c6b7	0.12771116
122	0x3db00150	0.08594
123	0x3da76b02	0.08174707
124	0x3d03374a	0.03203515
125	0x3c883970	0.01662895
126	0xbcee1265	-0.029061506
127	0xbd1853dc	-0.03718935
128	0x3dcdd2a8	0.10049945
129	0xbdcc8498	-0.09986228
130	0xbe02f8a7	-0.12790166
131	0xbbcb4d89	-0.0062043113
132	0xbd84e76f	-0.06489455
133	0xbdf50fea	-0.11965926
134	0xbdbd2089	-0.09234721
135	0x3d8d53e9	0.0690077
136	0x3d22955f	0.039693233
137	0x3cdaef3c	0.026725404
138	0xbe01f489	-0.12690939
139	0x3d24ad68	0.040204436
140	0xbcb0ffb6	-0.021606307
141	0x3f005fe9	0.5014635
142	0x3e9ab61d	0.30217066
143	0x3ebef2c1	0.37294582
144	0xbf061a0c	-0.52383494
145	0x3f326f3d	0.69700986
146	0xbdb8a5b9	-0.09015984
147	0x3e138660	0.14406729
148	0x3f691560	0.9104824
149	0x3ed6d2ef	0.41957805
150	0xbe88cb30	-0.2671752
151	0x3d8b0fd7	0.067901306
152	0xbec584e4	-0.3857795
153	0xbf409099	-0.7522064
154	0xbed6d74a	-0.41961128
155	0x3f97409d	1.1816593
156	0xbdeae924	-0.11470249
157	0xbf11d5f1	-0.56967074
158	0x3e9ad25c	0.30238616
159	0x3daa25d8	0.08307999
160	0xbf2392c3	-0.63895816
161	0xbd1f5753	-0.03890164
162	0x3ee155b7	0.44010708
163	0xbe25add5	-0.16179593
164	0xbfc248d6	-1.5178478
165	0xbf8e45f3	-1.1115097
166	0x3e1a5561	0.15071632
167	0xbf59f090	-0.85132694
168	0xbff906a3	-1.945515
169	0xbf004001	-0.5009766
170	0x3f72bbfd	0.948181
171	0x3f9bfb6a	1.21861
172	0xbf2df864	-0.6795714
173	0xbf8c982b	-1.0983938
174	0x3fba1d83	1.4540256
175	0xbe8b28ed	-0.2717966
176	0xbcb30402	-0.021852497
177	0xbf46b7e3	-0.7762434
178	0xbe82b45e	-0.25528234
179	0xbc77b595	-0.015118976

resblock1.conv1.bias f4 [3]
0	0xbb987310	-0.0046523884
1	0xbd954a31	-0.072895415
2	0x3e287f86	0.16454896

resblock1.conv2.weight f4 [1, 3, 3]
0	0x3e3a2e2a	0.18181673
1	0xbf53ec0e	-0.82782066
2	0xbfa3b8ee	-1.2790811
3	0x3e473188	0.19452488
4	0x3d3c25c1	0.045934442
5	0x3e29a3b5	0.16566356
6	0x3f98ba09	1.1931773
7	0xbf2a5a33	-0.66543883
8	0xbf8c47fb	-1.0959467

resblock1.conv3.weight f4 [3, 20, 3]
0	0x3dc45059	0.095856376
1	0x3dbba043	0.09161427
2	0xbd690718	-0.05689153
3	0xbcd25e59	-0.025679754
4	0xbc6d8ba6	-0.014498627
5	0xbdde8abd	-0.10866306
6	0x3de5090e	0.11183368
7	0x3d38b82d	0.04509752
8	0xbc801595	-0.015635291
9	0x3dd85f4b	0.10565051
10	0xbbaed2e7	-0.0053352
11	0x3c33ef12	0.010982292
12	0xbda6b2a5	-0.081395425
13	0x3d85719e	0.065158114
14	0xbd342e26	-0.043989323
15	0xbd9944e5	-0.07483844
16	0xbdde60ce	-0.10858308
17	0x3d4e989f	0.05043852
18	0xbcbe5ef1	-0.023238631
19	0x3d4d1467	0.050068285
20	0xbdbe9074	-0.09304896
21	0xbda5d576	-0.08097355
22	0xbe626eab	-0.22112529
23	0xbf26724a	-0.6501814
24	0xbe7009c6	-0.23441228
25	0xbe69a395	-0.22816308
26	0xbfafc32d	-1.3731438
27	0x3f3eada1	0.74483687
28	0x3e086943	0.13321404
29	0x3f658f4b	0.8967177
30	0x3e92d288	0.28676248
31	0x3c25eca7	0.010127223
32	0x3e266c0e	0.16252157
33	0xbe3e743e	-0.1859903
34	0x3f78d8c8	0.9720578
35	0xbf8d0ba8	-1.1019182
36	0x3e60a889	0.21939291
37	0x3f303eed	0.6884602
38	0x3f9e6b48	1.237649
39	0xbe3f043e	-0.18653962
40	0x3eb4be69	0.3530152
41	0xbeff1d57	-0.49827072
42	0x3f40d48f	0.7532434
43	0x3db676ea	0.089094
44	0x3f1459a7	0.579493
45	0xbd99585e	-0.07487558
46	0xbfbdbfcc	-1.4824157
47	0xbedde4e7	-0.433387
48	0x3f01239c	0.5044496
49	0x3fc8ff0d	1.5702835
50	0x3bac9913	0.0052672713
51	0xbee6cc59	-0.4507778
52	0xbea83ea6	-0.32860297
53	0x3f4d95f8	0.8030696
54	0xbdf3a2cd	-0.11896286
55	0x3ea80560	0.328166
56	0x3e639ca3	0.22227721
57	0xbe5ee385	-0.2176648
58	0x3f31018f	0.69143003
59	0x3f522d38	0.8210025
60	0x3cce8a74	0.025212504
61	0xbdb1949e	-0.086709246
62	0xbd38f65e	-0.04515683
63	0xbdba548f	-0.090981595
64	0xbd3ed679	-0.046591256
65	0x3c834b1b	0.016027024
66	0x3dd552fc	0.10416219
67	0x3dae4a07	0.08510213
68	0x3c3a2720	0.011361867
69	0x3d616e15	0.055036623
70	0xbe017107	-0.12640773
71	0x3b31554e	0.0027058902
72	0x3d6e25c3	0.05814148
73	0x3e01a437	0.12660299
74	0x3db36d38	0.08761066
75	0xba8837d3	-0.0010392613
76	0xbdb8ca58	-0.09022969
77	0x3d95f3fa	0.073219255
78	0xbe033063	-0.12811427
79	0x3ae3b9b2	0.0017374067
80	0x3d5cf2ae	0.053942375
81	0xbee6f617	-0.45109627
82	0xbe2e413d	-0.17017074
83	0xbf13394a	-0.5750929
84	0xbe489655	-0.19588597
85	0xbea07d51	-0.3134561
86	0xbf35ffdb	-0.7109353
87	0x3f915d7d	1.1356655
88	0x3f402116	0.75050485
89	0x3fa0f3f2	1.2574446
90	0x3eabec20	0.33578587
91	0xbd785e7f	-0.060636993
92	0xbef88023	-0.4853526
93	0xbe09f161	-0.13470985
94	0x3f60974c	0.8773086
95	0xbf1563b7	-0.5835528
96	0x3eec2dc5	0.4612867
97	0x3f5cf1d0	0.86306477
98	0x3fb98367	1.4493226
99	0xbec3b467	-0.38223574
100	0x3d0c3b12	0.03423602
101	0xbf2d56ec	-0.6771076
102	0x3f328a20	0.6974201
103	0x3db75c9c	0.08953211
104	0x3f41a037	0.75635093
105	0x3e54bb55	0.20774586
106	0xbfd66f07	-1.6752633
107	0xbf73b374	-0.951957
108	0x3f11200f	0.5668954
109	0x3fd78f76	1.6840656
110	0x3dee33f0	0.11631
111	0xbf341e8e	-0.7035912
112	0xbe64f717	-0.22359882
113	0x3f4793be	0.7795981
114	0x3c9e49c5	0.019322285
115	0x3ee6775b	0.45012936
116	0x3ee97778	0.4559896
117	0xbe5b307e	-0.21405217
118	0x3ec35b89	0.38155773
119	0x3f302dcd	0.68819886
120	0xbd4f6fd4	-0.050643757
121	0x3ba96ca3	0.005170421
122	0x3d044df3	0.0323009
123	0xbdaed5ec	-0.08536896
124	0xbd1b2997	-0.03788146
125	0xbe01ccb1	-0.1267574
126	0xbda04f0f	-0.07827579
127	0xbdc92571	-0.098215945
128	0x3d8d31bb	0.06894251
129	0x3d72f76b	0.059317987
130	0xbd1feb6b	-0.03904287
131	0xbd9ec490	-0.07752335
132	0x3d87ac09	0.0662461
133	0xbda7b543	-0.0818887
134	0xbdcdd44b	-0.10050257
135	0xbdfd86aa	-0.12379201
136	0xbcf9881e	-0.030460414
137	0xbdeb9836	-0.11503641
138	0xbe02f8af	-0.12790178
139	0xbe0112f4	-0.12604886
140	0x3d6a5e98	0.057219118
141	0xbe012189	-0.12610449
142	0x3afd67c7	0.0019333296
143	0xbf194862	-0.5987607
144	0xbe5a05a6	-0.21291217
145	0xbf00ebaa	-0.50359595
146	0xbf8310dd	-1.0239521
147	0x3f97d775	1.1862627
148	0x3f29ec2d	0.66376
149	0x3f8a2101	1.0791322
150	0x3f2b0de6	0.6681808
151	0x3dfd71b3	0.12375202
152	0xbf101ad4	-0.56290936
153	0x3da9465d	0.08265374
154	0x3f8b64ee	1.0890176
155	0xbf8fd654	-1.1237283
156	0x3f3d5c5d	0.7396906
157	0x3f71f091	0.945077
158	0x3fb02f1a	1.3764374
159	0xbe8ff89a	-0.28119355
160	0x3b22dc6f	0.0024850627
161	0xbf045fcf	-0.5170869
162	0x3f878308	1.0586863
163	0x3de3d1d1	0.11124004
164	0x3f38fd39	0.7226139
165	0x3e22c4c9	0.1589538
166	0xbfacbb6e	-1.3494699
167	0xbf85f9e8	-1.046689
168	0x3ea3a1ab	0.3195928
169	0x3fdca3e8	1.723752
170	0xbf7eb12f	-0.9948911
171	0xbf0d3d0d	-0.5517128
172	0x3d382862	0.044960387
173	0x3fb9aafb	1.4505304
174	0x3dd9939f	0.106238596
175	0x3eb8db67	0.3610489
176	0x3eadd0fe	0.3394851
177	0xbe8006ea	-0.25005275
178	0x3ec82e20	0.3909769
179	0x3f0e9783	0.5569994

resblock1.conv3.bias f4 [3]
0	0xbd7968aa	-0.06089083
1	0xbcb106a0	-0.021609604
2	0xbdeef566	-0.116679

resblock2.conv1.weight f4 [3, 3, 3]
0	0x3fbbf63a	1.4684517
1	0x3f9aaf92	1.208483
2	0x3f313bf6	0.6923212
3	0x3fa160e0	1.2607689
4	0x3f1aadab	0.60421246
5	0xbd092f1a	-0.033492185
6	0x4000f6ca	2.0150628
7	0x3faf72f8	1.3706961
8	0x3f523a5c	0.821203
9	0xbcb321a2	-0.021866623
10	0xbe8822d1	-0.26589063
11	0xbdec9fd6	-0.11553924
12	0xbe02ffd4	-0.12792903
13	0xbe59e434	-0.21278459
14	0xbe0d7fc1	-0.13818265
15	0xbf961424	-1.1724896
16	0xbf5d3b1e	-0.8641833
17	0xbea9f925	-0.33197895
18	0x3fdafd29	1.7108508
19	0x3febfaeb	1.8435949
20	0x3f2f0c5e	0.68378246
21	0x3f8f496e	1.1194284
22	0x3f4004dc	0.75007415
23	0x3eb6c475	0.3569676
24	0x3fa2482d	1.2678276
25	0x3fbcd69a	1.4752991
26	0x3ddc9042	0.107697025

resblock2.conv1.bias f4 [3]
0	0xbd170c6d	-0.036877085
1	0x3ecfcb45	0.4058477
2	0xbd3e840c	-0.04651265

resblock2.conv2.weight f4 [1, 3, 3]
0	0x3fb82978	1.4387655
1	0x3f87d8ef	1.0613078
2	0x3fa634fd	1.2984921
3	0xbdfcb001	-0.123382576
4	0xbeb92ecc	-0.36168516
5	0xbe606bf2	-0.21916178
6	0x3f9fc132	1.2480834
7	0x3f9acb9c	1.2093387
8	0x3f949eb8	1.1610937

resblock2.conv3.weight f4 [3, 3, 3]
0	0xbdefe3bb	-0.11713358
1	0xbd8f3126	-0.06991796
2	0x3e8915fa	0.2677458
3	0x3e489090	0.19586396
4	0x3e02b850	0.12765622
5	0x3dfa4210	0.12219632
6	0x3ce81c96	0.028333943
7	0xbe8c8847	-0.2744772
8	0x3e226776	0.1585978
9	0xbe842e5c	-0.2581662
10	0xbd8786e0	-0.06617522
11	0x3e811dd0	0.25218058
12	0xbe474858	-0.1946119
13	0xbe13d1db	-0.14435522
14	0x3ea82e48	0.3284781
15	0xbcb95780	-0.022624731
16	0x3ea63e94	0.32469618
17	0x3e156d98	0.14592588
18	0xbe305cbb	-0.17222874
19	0x3da4cc00	0.080467224
20	0x3e362898	0.17788923
21	0x3e17d98e	0.14829084
22	0x3eaa3e2e	0.33250564
23	0xbe521b68	-0.20518267
24	0xbe6773c0	-0.22602749
25	0x3ea266ac	0.31718957
26	0xbe824442	-0.25442702

resblock2.conv3.bias f4 [3]
0	0xbe4e4796	-0.20144495
1	0xbd0b59eb	-0.0340213
2	0x3e3aab73	0.18229465

resblock3.conv1.weight f4 [3, 3, 3]
0	0xbf0f2029	-0.5590845
1	0xbf35a2ed	-0.7095173
2	0xbf5b8dbc	-0.85763144
3	0xbf46878c	-0.7755058
4	0xbf2f3eb2	-0.6845504
5	0xbea75ef9	-0.32689646
6	0xbf0f566e	-0.55991256
7	0xbf084368	-0.53227854
8	0xbf0731b8	-0.5281024
9	0xbd5f07d6	-0.054450832
10	0xbe880a10	-0.26570177
11	0xbe9cfd6a	-0.3066209
12	0xbe79bdab	-0.24388759
13	0x3dba0a3b	0.090839826
14	0x3e475a40	0.19468021
15	0xbe536cbb	-0.20646946
16	0xbd64be80	-0.055845737
17	0xbe4a77e3	-0.19772296
18	0x3d921b51	0.071341164
19	0xbe2173ff	-0.15766905
20	0x3e994a26	0.29939383
21	0xbdbf3bdd	-0.0933759
22	0xbd319e7e	-0.04336404
23	0x3efe99bf	0.49726674
24	0xbcee3e52	-0.029082451
25	0xbed29c5f	-0.41134927
26	0x3e820338	0.2539308

resblock3.conv1.bias f4 [3]
0	0x3c09b8c3	0.008405867
1	0xbe8da27f	-0.27663037
2	0x3ec3d6fb	0.38249955

resblock3.conv2.weight f4 [1, 3, 3]
0	0xbd90a7e3	-0.07063272
1	0x3eae99c9	0.34101704
2	0x3e4b3c48	0.19847214
3	0x3e5fd493	0.21858434
4	0x3c855f80	0.01628089
5	0xbe530f93	-0.2061141
6	0xbeafd5af	-0.34342715
7	0xbe6557d9	-0.22396792
8	0xbd74683b	-0.059669714

resblock3.conv3.weight f4 [3, 3, 3]
0	0x3df604bb	0.12012621
1	0xbe7edcb6	-0.24888882
2	0xbdc2f086	-0.095185325
3	0x3e231ff8	0.15930164
4	0x3b62a6ab	0.0034584205
5	0xbd4a3000	-0.049362183
6	0x3debaa10	0.11507046
7	0xbd2e88e0	-0.042611003
8	0x3ea8b902	0.3295365
9	0x3e9ef063	0.31042776
10	0x3dde8c16	0.10866563
11	0x3e94919f	0.2901735
12	0xbe7a0488	-0.24415791
13	0xbdef170b	-0.11674317
14	0x3e54c4a0	0.20778131
15	0x3e9cf8b2	0.3065849
16	0x3e968c2c	0.29403818
17	0xbe4d1f86	-0.20031556
18	0xbe217673	-0.15767841
19	0x3dae076b	0.084975086
20	0xbe884ba2	-0.26620203
21	0x3e5d6ac6	0.21622762
22	0x3e7c3f70	0.24633574
23	0xbe87e6ea	-0.2654336
24	0xbb8e7e00	-0.0043485165
25	0x3ea282fb	0.31740555
26	0x3e0e4ca0	0.13896418

resblock3.conv3.bias f4 [3]
0	0x3e2870c8	0.16449273
1	0xbe14d3e3	-0.14533953
2	0x3dcaa69b	0.09895059

resblock4.conv1.weight f4 [3, 3, 3]
0	0x3fc58a49	1.5432826
1	0x3f3b8e5c	0.732641
2	0x3da877f4	0.08226004
3	0x3f980068	1.1875124
4	0x3f37645c	0.7163751
5	0xbe33547b	-0.17512695
6	0x3fc9cdb4	1.5765901
7	0x3fb29ec7	1.3954705
8	0x3e194be7	0.1497036
9	0x3e0d2c15	0.13786347
10	0xbeb3ea9c	-0.3513993
11	0x3f0bf12e	0.54664886
12	0xbed73447	-0.42032072
13	0x3dd21f28	0.10259849
14	0x3d7c0a59	0.061533306
15	0x3d347750	0.044059098
16	0xbe97a214	-0.29615843
17	0x3e451fa3	0.1925035
18	0x3dab158e	0.083537206
19	0x3e73c048	0.23803818
20	0x3de3001b	0.110840045
21	0xbea49250	-0.32142878
22	0xbea1cae5	-0.3160011
23	0xbe8f0012	-0.2792974
24	0x3bb6f234	0.005583072
25	0xbe31e7f4	-0.1737364
26	0xbdcd40e4	-0.100221425

resblock4.conv1.bias f4 [3]
0	0xbe2d6587	-0.16933261
1	0x3dd61b44	0.10454419
2	0x3dc66db6	0.096888945

resblock4.conv2.weight f4 [1, 3, 3]
0	0x400c3f09	2.1913474
1	0x3fc8dccf	1.5692385
2	0x3fbbe665	1.4679686
3	0xbda58839	-0.08082623
4	0xbe1d3c74	-0.15355092
5	0xbef3e479	-0.47635248
6	0xbe95f2ac	-0.29286706
7	0xbdb72fab	-0.08944639
8	0xbe86f208	-0.2635653

resblock4.conv3.weight f4 [3, 3, 3]
0	0xbe4b791e	-0.19870421
1	0xbe521d20	-0.20518923
2	0xbeaa0d94	-0.33213484
3	0x3e2f3e03	0.171135
4	0x3dc8a486	0.09797005
5	0x3e7eba78	0.2487582
6	0x3b822dab	0.003972729
7	0xbd1e4bb6	-0.038646422
8	0xbd7b61e0	-0.061372638
9	0x3da6b39b	0.08139726
10	0xbe7df916	-0.2480205
11	0x3d89749b	0.06711694
12	0x3e974386	0.29543704
13	0xbe804cc0	-0.25058556
14	0xbe911fcc	-0.28344572
15	0x3e8bf883	0.27338037
16	0x3e80b62b	0.25138983
17	0x3d528d60	0.051404357
18	0xbe0aa71b	-0.13540308
19	0xbdffd410	-0.124916196
20	0x3e62ca93	0.22147588
21	0xbd2f1f76	-0.042754613
22	0xbb642600	-0.0034812689
23	0xbe39a51b	-0.18129389
24	0xbcf6b240	-0.030114293
25	0xbe118206	-0.14209756
26	0x3e9ff324	0.3124019

resblock4.conv3.bias f4 [3]
0	0x3de81446	0.11331992
1	0xbe748c9e	-0.23881766
2	0xbe71ef9b	-0.23626558

fc.weight f4 [2, 3]
0	0xbf566898	-0.8375335
1	0xbf532fb2	-0.8249465
2	0xbf20aab2	-0.6276046
3	0x3f85dff3	1.0458969
4	0x3f9b6853	1.2141212
5	0x3f97c55e	1.1857107

fc.bias f4 [2]
0	0x3fafb2b8	1.3726416
1	0xc0070332	-2.10957
