distillog/datasets/BGL/model/random_lightlog.pth (torch, 10007 bytes, 22 tensors)

resblock1.conv1.weight f4 [3, 20, 3]
00000000: 4fd7 e23d 0d3f b53d b6a1 86bc c0bc 1bbc
00000010: 56db ef3d 5cfd c6bd 2e1d 003d f81e 00be
00000020: fdab 803d c83b 8cbc c754 b13d dd0a 003d
00000030: 3598 abbd 1d61 01be edf7 b83d 4629 efbd
00000040: bc93 dabc 1c7f a4bc 820c e93d 435c 8a3a
00000050: 4b77 a33d db9b 1e3f 09fb 093e 62c1 84be
00000060: 3952 61be 2232 183e 32a9 acbe b307 473c
00000070: 53a1 393c 165b 21bd 6609 cfbe 8b62 88be
00000080: 587e 83be e315 6fbd 2115 c8bd 80be d3bc
00000090: 33b1 febe b9fa a8be 9d15 1f3e 1984 25be
000000a0: 3362 fcbd 5a9c 8f3d 175a 9e3e 6e25 983c
000000b0: dc4e 96be b381 cc3e d0df 1c3f 3098 de3d
000000c0: d1aa 8b3c 5ea6 e53c e976 d1bb dc9a 4abe
000000d0: e111 62be 7a7b 393e 0338 2dbd afd5 4e3e
000000e0: c6cb 81be d863 8abd 69e5 92be bd79 3cbf
000000f0: 9de6 69bd 5d2c d6bd caad e4bc 3359 a9bd
00000100: 4ab4 8b3d b08f 483d c180 2bbd e474 083c
00000110: e173 cb3c d612 ff3d 3e22 a1bb 19ad d1bd
00000120: 5071 b93d c151 033e 6962 ffbd 3016 d9bd
00000130: 6c87 3bba cded ecbd 3a55 3ebc 0819 e3bc
00000140: 1fd9 52bc 3732 68be 7d1f a9bd 45ee 74be
00000150: 2bcb 5c3d f59d 3ebe 40bc 9a3e 3ce3 8dbe
00000160: cfe4 85bc 2197 3dbe 1bb8 b3be 099b eabd
00000170: a6a2 38be 5697 ccbd c1c4 10be a4da 1bbe
00000180: 4bb6 0ebe a882 d4be 9a0e 09bf 0d8d bc3d
00000190: 8b0f 833d 829a e43e 28c3 363e ef37 dd3e
000001a0: 7f0d 4b3d af76 b7bd fa0c 02be f5f5 4b3d
000001b0: c00f 073f a7a2 0d3e efa0 863e 7547 733e
000001c0: 32fc 583d 46c5 b83e f6f8 fc3d 0d7d 50be
000001d0: 5e32 dcbd 244f 8ebe 1ae1 393e c2e9 d8bd
000001e0: d0c5 b5bd 3658 e23d cc4a 8cbd 814f 15bc
000001f0: aacd d23c 0b5a 5e3d c6d5 54bd 73c5 55bd
00000200: 5b88 5a3d 13a3 1fbd b429 6f3d 2fdb aabc
00000210: d7ca 81bb 4eed 453d 075a 62bd f895 a2bd
00000220: e1a4 b73d b47b afbd efa5 b13d fce5 8bbd
00000230: 1d80 343d c9c7 b43c 8fe1 15be 1c19 46be
00000240: 2755 713e d061 093c ba6d 863e 1e65 7b3d
00000250: 6b7b 1cbe 418c df3d 8b25 0f3e c6f0 35be
00000260: c072 823d 411a b7be fb9c d0be eaec 83be
00000270: 74b5 b53e a508 3d3e f8ee cd3e ca5a 73be
00000280: 0f8b 543e 4e44 87be 22c9 fe3d ba82 9c3c
00000290: 9ded 743d a239 20be 87ca 39bd a4ea babc
000002a0: 063b 2f3d 68c5 06be 8c9f 093d f414 833d
000002b0: 0acc 383c 0dad d83d 9b62 f6bd dccf f2be
000002c0: c581 c0be 3082 78bd 07ad c1be 51c7 debc
0.11076223 0.088499166 -0.016434532 -0.009505451 0.11711757 -0.09716293 0.031277828 -0.12511814
0.06282804 -0.01711835 0.08658748 0.03126036 -0.083786406 -0.12634702 0.09031663 -0.11677794
-0.026681773 -0.020080142 0.11379339 0.0010556061 0.07981738 0.61956567 0.13474669 -0.2592879
-0.22004022 0.14862874 -0.33722836 0.012147832 0.011329967 -0.039393507 -0.40436858 -0.26637682
-0.2568233 -0.058370482 -0.09769655 -0.025847673 -0.49744567 -0.33003786 0.15535589 -0.16163673
-0.123234175 0.070122436 0.30928108 0.018572535 -0.2935704 0.39942703 0.6127901 0.10868871
0.017049225 0.028033432 -0.006392349 -0.19785637 -0.22077133 0.18113509 -0.042289745 0.20198701
-0.2535078 -0.06757325 -0.2869065 -0.7362326 -0.057104696 -0.104576804 -0.0279149 -0.082689665
0.06821497 0.048965156 -0.041870836 0.00832865 0.024835529 0.124547645 -0.004917412 -0.10238094
0.09054816 0.12824155 -0.12469942 -0.10599935 -0.00071536633 -0.115687944 -0.011616999 -0.027721897
-0.0128691485 -0.22675405 -0.08257959 -0.23919018 0.053904694 -0.18614943 0.30221748 -0.2771243
-0.016344456 -0.18514682 -0.351014 -0.11455352 -0.18030795 -0.099898025 -0.14137556 -0.15220124
-0.13936727 -0.41505933 -0.53537905 0.09206591 0.06399449 0.4464913 0.17847884 0.43206736
0.049573418 -0.08958184 -0.12700263 0.04979511 0.5275841 0.13831578 0.26294658 0.23757727
0.052974887 0.36088008 0.12352173 -0.20360203 -0.10751794 -0.27794755 0.18152276 -0.10591461
-0.0887562 0.11051981 -0.06850204 -0.0091131935 0.025732834 0.05428509 -0.051961683 -0.052190255
0.053352695 -0.03897388 0.05838938 -0.020856468 -0.003960948 0.048322015 -0.055261638 -0.079387605
0.08966995 -0.085685164 0.086742274 -0.068309754 0.04406749 0.022067921 -0.14636825 -0.19345516
0.2356764 0.008385137 0.2625559 0.06137573 -0.15281455 0.10915423 0.13979165 -0.17767629
0.06369543 -0.35762218 -0.40744767 -0.2576669 0.3549 0.18460329 0.4022138 -0.23765102
0.20756172 -0.264193 0.12440707 0.019105304 0.05979692 -0.15646985 -0.04535916 -0.022816963
0.0427809 -0.13161242 0.03359942 0.06400481 0.011279115 0.10579882 -0.12030526 -0.4742421
-0.37599006 -0.06067103 -0.37827322 -0.02719465

resblock1.conv1.bias f4 [3]
00000000: 6b83 7fbe f507 c6bd 782f 223e
-0.24952476 -0.096694864 0.1583842

resblock1.conv2.weight f4 [1, 3, 3]
00000000: ff93 c2bf 39b4 c2be 8d92 b6bf a5af 2fbe
00000010: 4589 d93e 51c7 b93e a05e a13e 4a04 243e
00000020: 4287 d43e
-1.5201415 -0.38028124 -1.4263474 -0.17156847 0.4248754 0.3628488 0.31517506 0.16017261
0.41509444

resblock1.conv3.weight f4 [3, 20, 3]
00000000: e7be ac3d 4913 b33d 3436 34bc 0a1c f43c
00000010: bd32 fc3d 862b a73d fbdb 4b3d 3948 d03d
00000020: 08ed 9f3d 29ef 36bd 0c34 b93d 5fc1 62bc
00000030: 41a1 8bbd 710d 8e3d 9e1f 4dbd 4c06 b7bd
00000040: f973 093d 049b 3c3d 058f a6bd 0766 ecbd
00000050: 299c abbd b777 4fbf 2ea6 30bf 2927 1bbf
00000060: c45a 003f 195d 6c3e a7e0 e53e beac c1be
00000070: 9d41 a5bf 3b74 eebe 3b21 82bf 1347 99bf
00000080: 608e cebf 1242 53be 1b0a f3bd 42d4 e5bd
00000090: 00da 833f 17c1 783f ef35 883f 4885 22bf
000000a0: 6a7d 793e e544 c4be 990a 183f b1c2 23be
000000b0: 8812 d13e 10c9 773e 8086 16be d6ed 9abe
000000c0: 9de3 413e 76ce bf3d fd1b f83e 3132 7abf
000000d0: bb68 50bf e348 33bf 5316 bfbf 8ece 14bf
000000e0: 341e 82bf ba03 24c0 5b2f 21c0 37bd 11c0
000000f0: 492d aa3d 04c9 fc3d 4925 b7bd 7666 583d
00000100: 43bf 673c baf0 b0bd 789c db3d be96 ccbc
00000110: 9a30 623d 0b79 993d 308c 9abd 6091 f6bd
00000120: c027 933d f161 fb3d 2272 983d 1130 efbd
00000130: 211d 8bbd c5ae 48bd 5911 313d 4ade 2c3d
00000140: d536 1d3d 94e0 9fbb 0e74 ef3c 0e73 e3bd
00000150: 3ba4 d83b b78d 15be c7fc 34bd 9899 9abc
00000160: b4f5 5f3d 9ac8 56bd 0b1f 923c bd73 053e
00000170: e833 82bd dda8 1cbe 5e19 243c 8098 04ba
00000180: 5961 c8bd f7c5 7d3e 9239 a5bd 486a d63d
00000190: 7b1e 9ebe 0db7 333e 0de4 8ebd 2bbd 33be
000001a0: 8dbe 4cbd 90fc dc3a 8aab 143e f147 0b3e
000001b0: 4dc9 893b a1d7 003e 2692 09be 544b a33e
000001c0: 6f9e 1c3c d2cf c53d 4421 8f3e 8a81 bb3e
000001d0: d7b5 a03e 7aa9 b9bc 920b 983e 726f cfbe
000001e0: 7975 bbbd 4d4c aa3d 8f52 92bd 7604 ea3d
000001f0: cf05 c63d 0cb1 eb3c 6f21 1d3d a135 fdbd
00000200: 5343 863d 477b 133d 6c83 40bd 8c01 623d
00000210: 9c1f 43bc 0465 bbbd 246e f73d 6d4b 7abd
00000220: 1b76 03be af12 013e 28fb ad3d b365 12bc
00000230: 7bae e7bb ec48 513d 6e1a 573e c140 cabd
00000240: 74b9 7dbd 976f b5bd 9ea7 32be 87c2 9cbd
00000250: 4479 0a3e b289 0dbe 031a 05be 8bb4 21be
00000260: e51d a4be 10d5 2dbd b1da ba3d f3ab 803e
00000270: a1d1 82be 65e0 8b3e 67ea 8fbe 3458 363e
00000280: a4d3 d2be 28df 40bd 88a6 cbbd b91c 433d
00000290: ba3c 92bc 82d1 fabc 2370 fe3d 73ac d0bb
000002a0: 3462 1dbe c4bd b43d bad8 86be dacd 66be
000002b0: 6ebf 02bf b652 62be 899d cdbd d02f 8e3e
000002c0: 37e3 603d 69b3 84be 1176 793e c054 e6bd
0.08434849 0.08743913 -0.010999251 0.029798526 0.12314365 0.08162598 0.049770337 0.101700254
0.07808882 -0.044661675 0.0904313 -0.013840049 -0.06817866 0.069361575 -0.05007898 -0.08936748
0.033557866 0.046046272 -0.081327476 -0.11542898 -0.083793946 -0.81042045 -0.6900357 -0.6060663
0.501385 0.23082389 0.4489796 -0.37827104 -1.2910649 -0.46573052 -1.0166391 -1.1974815
-1.6137199 -0.20630673 -0.11867162 -0.112221256 1.0300903 0.9716963 1.0641459 -0.6348462
0.24364248 -0.38333812 0.5939117 -0.15992238 0.4083445 0.24197793 -0.14699745 -0.3025958
0.18934484 0.09365551 0.48458853 -0.97732836 -0.81409806 -0.7003309 -1.4928688 -0.5812768
-1.0165467 -2.5627275 -2.5185153 -2.2771738 0.08309419 0.12343028 -0.089426585 0.05283209
0.014144721 -0.08639665 0.107232034 -0.024974223 0.05522213 0.0749379 -0.0754627 -0.12039447
0.07185316 0.1227454 0.07443644 -0.1167909 -0.06792665 -0.0489948 0.043229435 0.04220418
0.03838237 -0.0048790667 0.029230144 -0.11105929 0.0066113747 -0.14604841 -0.04418638 -0.018872067
0.05467768 -0.052437402 0.017837068 0.13032432 -0.063575566 -0.15298791 0.010015814 -0.00050581247
-0.097841926 0.24782549 -0.08067621 0.1046949 -0.3088263 0.17550297 -0.06977091 -0.1755263
-0.04998641 0.0016859937 0.14518562 0.13601662 0.004204905 0.12582256 -0.13434657 0.31893408
0.009559258 0.09658779 0.27955067 0.36622268 0.31388733 -0.02266382 0.29696327 -0.40514714
-0.091532655 0.083153345 -0.07144653 0.11426632 0.09669077 0.028770946 0.038361963 -0.123637445
0.0655581 0.03600624 -0.047000334 0.055177256 -0.011909392 -0.091501266 0.120815545 -0.061107088
-0.12838022 0.12604783 0.0849517 -0.00893538 -0.0070703602 0.051094934 0.21006176 -0.09875632
-0.06194444 -0.08859175 -0.17446753 -0.07654291 0.13522822 -0.13822058 -0.12998204 -0.15791528
-0.32054058 -0.04243952 0.09123743 0.25131187 -0.2555056 0.27319637 -0.28108522 0.17807084
-0.41177094 -0.04708782 -0.09943873 0.047634814 -0.017851222 -0.03061748 0.12423732 -0.006368214
-0.15369493 0.088252574 -0.26337224 -0.22539464 -0.5107335 -0.22101864 -0.10039813 0.27770853
0.05490419 -0.2591813 0.24361445 -0.112466335

resblock1.conv3.bias f4 [3]
00000000: e207 d03e 0b95 63bc 4d6d 21ba
0.40631014 -0.013890515 -0.00061579497

resblock2.conv1.weight f4 [3, 3, 3]
00000000: a068 bfbe 8728 15bd b50b 533d 9e70 003f
00000010: 5472 063f f6e9 9f3e 5827 123f 107a 273f
00000020: 9ebe b83e 6b44 90be 39ca 203e a556 3dbe
00000030: d938 e43e 70c8 063e 4525 693e e840 223f
00000040: b6bf 1b3f 9237 003f 34d3 583c 373b b6bc
00000050: 2806 37be fdb9 023f 85c0 263f 7860 273e
00000060: e6f7 8d3e 5449 643e 1124 7a3e
-0.3738451 -0.036415603 0.051524837 0.5017184 0.525182 0.31233186 0.57091284 0.6542063
0.3608293 -0.281772 0.15702142 -0.18490084 0.4457462 0.13162398 0.22768123 0.6338029
0.608394 0.50084794 0.0132339485 -0.022245033 -0.17873442 0.51065046 0.6513751 0.16345394
0.27728194 0.22293597 0.2442782

resblock2.conv1.bias f4 [3]
00000000: 428b 1a3e 38e4 5fbc c7bf 6cbc
0.15092185 -0.013665251 -0.01445002

resblock2.conv2.weight f4 [1, 3, 3]
00000000: a008 963e 7fa2 f93e d1b9 3a3e 8cc4 0a3f
00000010: 3db2 e33e 81aa 273f 9bbe f3bd e966 e73d
00000020: 991e 953e
0.29303455 0.48756787 0.18234946 0.54206157 0.44471923 0.65494543 -0.119015895 0.112989254
0.29124907

resblock2.conv3.weight f4 [3, 3, 3]
00000000: abc0 3a3d 4be2 26be 38d3 43be cb19 76bd
00000010: f826 083e 3bb6 aabd 30af 5ebe 46d7 473e
00000020: fb06 a23d 0002 dbbc 7b78 01be 13d5 323e
00000030: d6d5 9ebc 22dc 963e 5663 113b 10ed 7ebe
00000040: 1690 283e 33b2 113e f669 3f3e 6332 6bbe
00000050: f64f 053e 0b51 65be 86cb 453e 2393 9f3e
00000060: d6f0 233e 589c 9cbe be9b 3abe
0.0455939 -0.16297261 -0.19123542 -0.06008319 0.13296115 -0.08335539 -0.21746516 0.19515714
0.07911488 -0.026734352 -0.12643616 0.17464094 -0.019389074 0.29464823 0.0022184453 -0.2489512
0.16461214 0.14228134 0.18692765 -0.2296844 0.13018784 -0.22394197 0.1931592 0.31166944
0.1600984 -0.3058803 -0.18223473

resblock2.conv3.bias f4 [3]
00000000: e76c 863e 365e f4bd 6b54 923e
0.2625496 -0.11932032 0.2858003

resblock3.conv1.weight f4 [3, 3, 3]
00000000: 699e 273f 9981 023d d2e2 8d3d d6af e9be
00000010: 6231 563d 4fc5 6ebc 773b c4bd 2091 cdbe
00000020: 9a6f 60be 07c7 163d 32c1 003f 7e0c 433d
00000030: 8b71 ed3e d4b0 303e 5dd1 e93e e5f3 b3bd
00000040: 4471 b33e ed51 013f 8941 d7be 828c 60be
00000050: 9722 073f 1379 e5bd fd66 2bbd 2aed 803c
00000060: cb76 e3be 5c38 9abc 55f4 c03e
0.6547609 0.031861875 0.06928028 -0.45641965 0.05229319 -0.014573409 -0.095816545 -0.40149784
-0.21917573 0.0368109 0.5029479 0.047619335 0.4637569 0.17254955 0.45667544 -0.087867536
0.35047352 0.50515634 -0.42042187 -0.219286 0.52787155 -0.11204734 -0.041846264 0.015738089
-0.4442657 -0.018825702 0.3768641

resblock3.conv1.bias f4 [3]
00000000: e378 04bf 978e b7be ec16 9e3e
-0.5174696 -0.35850975 0.30876863

resblock3.conv2.weight f4 [1, 3, 3]
00000000: ff20 33bf 5184 7abe abcf a33e 102d 533d
00000010: c529 893e 0c39 fa3e 4050 71bf 320f bfbf
00000020: e663 90bf
-0.69972223 -0.24464537 0.31994376 0.051556647 0.2678968 0.48871648 -0.94263077 -1.4926512
-1.1280487

resblock3.conv3.weight f4 [3, 3, 3]
00000000: 902b 0b3e b32f 2dbe 3bf2 db3d 6001 9f3d
00000010: 9b2e ab3d 26f3 203e 50f4 41be 3b06 2c3e
00000020: 96d0 c3bc f69e 5cbe 768d 213e 2b45 82be
00000030: 560e 3c3c 6048 92bd a06a dd3d c0a5 423e
00000040: 1778 963e 7b11 973e 5613 82bb e68b a23d
00000050: a340 823e 1b0f f33d d67d 2c3d 76dc 713d
00000060: 323e a4be 3e30 a33e b020 a7be
0.13590837 -0.16912727 0.10739561 0.07763934 0.08358499 0.15717754 -0.18940854 0.16799252
-0.023903172 -0.21545014 0.1577662 -0.25443396 0.011478027 -0.07142711 0.10811353 0.19008541
0.29388496 0.29505524 -0.00396959 0.0793684 0.2543994 0.118681155 0.042112194 0.05904814
-0.320787 0.31872743 -0.32642126

resblock3.conv3.bias f4 [3]
00000000: 5236 9e3e eb59 263d 9043 a3be
0.30900818 0.040613096 -0.31887484

resblock4.conv1.weight f4 [3, 3, 3]
00000000: 9da2 fabe ce6e 9f3d 5614 bb3d 4de6 49bf
00000010: 2b81 c13e 8858 bb3e 6515 1abf e0a3 f23d
00000020: a2b2 273f 63e2 e4be 1ddf 9f3c a0ab e5bd
00000030: f3bf e13c cd15 d13e 8de5 093f ee4f 393e
00000040: fc24 b23e 9e77 943e 734c 8cbe 39ef f33d
00000050: f93f 073f cc29 a7be 1e90 ff3e 5889 d43e
00000060: 5372 9bbe cf72 113f ff86 a93e
-0.4895219 0.07784806 0.09134738 -0.78867036 0.3779386 0.3659098 -0.60188895 0.11847663
0.6550695 -0.4470397 0.019515568 -0.112143755 0.027557349 0.40836945 0.5386589 0.18096897
0.34793842 0.2899751 -0.27402076 0.119108625 0.5283199 -0.32649076 0.4991464 0.41511035
-0.3036066 0.5681581 0.33110806

resblock4.conv1.bias f4 [3]
00000000: e5f2 543f 3ba5 f6be 5a57 84be
0.8318313 -0.48172936 -0.25847894

resblock4.conv2.weight f4 [1, 3, 3]
00000000: b6b9 8dbf 2624 41bf 0f10 2ebf 8f96 1f3e
00000010: 057f 123e c5c9 e03e cd46 823e 273f 283e
00000020: c35d 343f
-1.10723 -0.75445783 -0.67993253 0.15584777 0.14306267 0.43903938 0.25444642 0.1643034
0.7045557

resblock4.conv3.weight f4 [3, 3, 3]
00000000: a677 9bbd 1a06 81be eb9c 313d d6f2 4abe
00000010: a6e0 0b3e c07b 29bd 4bce 45be 38ae 9fbe
00000020: 0860 06be 5619 24bb 086e 69be c334 183e
00000030: f31c 2c3e 1aae a93e 1bd3 9bbd b6af 943d
00000040: a083 303d 38ae 0d3e d0e7 a63d 5eb5 4a3e
00000050: 569a 013c 43c2 8a3e 288c 6ebe 2be6 01bd
00000060: d86a 11be a04c 983d e430 91be
-0.075911805 -0.25199968 0.04336254 -0.19819197 0.13659915 -0.041377783 -0.19316976 -0.31187606
-0.1312257 -0.0025039515 -0.2279588 0.14863877 0.16807918 0.3314064 -0.076086245 0.07260077
0.043094277 0.1383599 0.081496835 0.19795749 0.007910332 0.27101335 -0.23295653 -0.031713646
-0.14200914 0.0743649 -0.28357613

resblock4.conv3.bias f4 [3]
00000000: eecf 2dbe 50c3 9ebd 304f 863d
-0.1697385 -0.07752097 0.065580726

fc.weight f4 [2, 3]
00000000: 8b47 35bf 0873 8d3f 568f e93e 335e 853f
00000010: b3ef 51bf a157 45bf
-0.7081229 1.105073 0.4561717 1.0419372 -0.82006377 -0.77086836

fc.bias f4 [2]
00000000: c378 1bbe c7af de3e
-0.15182786 0.43493482
